models/AD_model_swarm.pth (torch, 2023 bytes, 1 tensors)

weight f4 [1, 100]
00000000: 0140 d6bc 00df f23c 69b8 933d f5e1 8b3a
00000010: 8db9 623c 4e80 80bc 389e 5d3c 0547 933b
00000020: ecd7 813b add8 0d3d e1aa ebbc fca7 70bb
00000030: 565b 9fbd 44c7 20bd 88ee 2b3e 1455 aebc
00000040: 3dd0 e43c 7d27 b43c 2419 02bc 5082 f93c
00000050: fbdb d13d e351 bd3c 64b8 1dbc 058f 20bd
00000060: 0160 c73b ff0d 593b e8e9 38bb 08be 92bd
00000070: e703 6abd cd5c 913c 012d 27bd 1bbb 163d
00000080: b3a3 ea3d f8ef 2c3b 62b3 943c 6f07 f73b
00000090: 5444 ea3b f87d cb3c 0df9 8ebc c908 ccbb
000000a0: a35c 443c f08a 8abd cd00 6fbc 0167 1f3c
000000b0: 00d2 a2bc bc0a 353d 1375 db3c 4415 c6bc
000000c0: 6bc2 ca3c 9563 ccbc 8bb8 84ba b6b4 173c
000000d0: c19b 9c3c 65ce af3b 4487 bf3c 5d7b a4bc
000000e0: 5726 253d 86b0 283c a54b d0bc b433 273d
000000f0: 0847 d3bc bd35 553c 989e c6bc 57be 9abc
00000100: 04db 683c d79d c2bb 1c4d 23bd 3d57 7e3d
00000110: 295c 8d3c 3c4b c03c c870 f0bb 3d94 693d
00000120: 93a0 51bd 55e3 eebb 31e6 b1bc 328a 0bbd
00000130: 7db2 99bd 8367 cf3c 3074 55bd c848 213c
00000140: eb78 edba 4898 04bd 37cb d5bc c118 863d
00000150: 6fac dfbb 4ffd f6bb 5df4 d4bc 25a0 e23c
00000160: c3c1 bf3c 90b7 bb3c f0e5 85bc b525 99bc
00000170: 7b99 9e3c ec13 803c 7f58 76bc e536 273d
00000180: 0f78 5abc 2cca 6b3c 91cc 0cbc ff91 133d
-0.026153566 0.02964735 0.07212908 0.0010672199 0.013838184 -0.01568618 0.013526492 0.00449455
0.0039625075 0.034630466 -0.028768005 -0.003672122 -0.07781093 -0.039252535 0.16790211 -0.021280803
0.027931327 0.021991486 -0.007940564 0.030457646 0.10247036 0.023110336 -0.009626482 -0.039198894
0.0060844426 0.0033119915 -0.002821559 -0.07165152 -0.057132628 0.017744446 -0.040814403 0.03679953
0.114570044 0.002638815 0.018151943 0.007538728 0.0071492586 0.02484034 -0.017452741 -0.006226633
0.011984977 -0.067647815 -0.014587593 0.009729148 -0.019875526 0.04419969 0.026789224 -0.024180062
0.024750909 -0.024949828 -0.0010125799 0.009259393 0.019117238 0.0053651803 0.02337993 -0.020078355
0.040319767 0.010295993 -0.025426695 0.040820792 -0.025790706 0.0130133005 -0.024245545 -0.01888959
0.014212374 -0.005939226 -0.03986846 0.062094916 0.01725586 0.023473375 -0.0073376633 0.057026137
-0.051178526 -0.0072902837 -0.02171621 -0.03406734 -0.07504747 0.025317913 -0.05211276 0.009844013
-0.0018117701 -0.03237179 -0.026097877 0.0654769 -0.0068259756 -0.007537521 -0.025995428 0.027664253
0.023407822 0.022914678 -0.016344994 -0.018694738 0.019360295 0.0156345 -0.015035748 0.040823836
-0.013334288 0.014391463 -0.008593694 0.036027905
