models/linear_svm_brain_volumes.pt (torch, 2541 bytes, 1 tensors)

linear.weight f4 [1, 95]
0	0xbd012afc	-0.031535134
1	0x3d4bd0ee	0.049759798
2	0x3ca58389	0.020204322
3	0xbcbe1d2c	-0.02320727
4	0xbdb9e627	-0.09077101
5	0xbd6b7599	-0.057485197
6	0xbcf8a253	-0.03035084
7	0xbba20998	-0.0049449913
8	0x3c7cc956	0.015428862
9	0x3cef8bf8	0.029241547
10	0xbd8e8a46	-0.06959967
11	0x391edb92	0.0001514985
12	0xbd0a9bd8	-0.03384003
13	0xbd09fa5d	-0.03368603
14	0x3dccd327	0.100012116
15	0x3b9ff882	0.0048819194
16	0xbc8b49ee	-0.017003026
17	0x3d2ff342	0.042956598
18	0xbd062011	-0.032745425
19	0x3cd310cc	0.025764845
20	0x3c32badb	0.010908808
21	0xbc8af7cf	-0.016963867
22	0xbd5e4daa	-0.054273285
23	0xbd2600f7	-0.040528264
24	0xbd5ed2ea	-0.054400362
25	0xbc2f29f6	-0.010691157
26	0xbcec0997	-0.028813167
27	0xbd3a4b86	-0.04548218
28	0xbd153352	-0.036425896
29	0x3b246ab0	0.0025088005
30	0x3aabebb4	0.001311651
31	0x3d894a9b	0.06703683
32	0x3dcc2fcf	0.09970056
33	0x3c4b65c1	0.012414397
34	0xbdba6118	-0.091005504
35	0x3d321cdc	0.043484554
36	0xbd581af8	-0.052760094
37	0x3c8071dd	0.015679294
38	0xbca78b1c	-0.020452075
39	0xbd169913	-0.036767077
40	0xbc29cab3	-0.010363269
41	0xbc82ba42	-0.015957955
42	0xbc95027e	-0.018189665
43	0xbd46dddf	-0.048551437
44	0xbc233708	-0.009961851
45	0x3b90c8aa	0.0044184523
46	0xbd934524	-0.07190922
47	0x3d8d1bca	0.06890066
48	0x3c3547fa	0.011064524
49	0x3e04ea9a	0.12980118
50	0xbd9c7946	-0.076403186
51	0x3d8393fc	0.0642471
52	0x3c265783	0.0101527
53	0xbc39b320	-0.011334211
54	0x3a6ca6bb	0.00090275303
55	0xbd22e949	-0.03977326
56	0x3decb52a	0.11557992
57	0xbe054e70	-0.13018203
58	0xbc48d93d	-0.012258825
59	0xbc55e10e	-0.0130541455
60	0xbd2ab0de	-0.04167258
61	0xbd58dea2	-0.052946694
62	0x3d4650e6	0.048416995
63	0x3da807a8	0.08204585
64	0xbd120064	-0.035644904
65	0xbdcf60d7	-0.101258926
66	0x3c1b4f86	0.009479409
67	0xbd287746	-0.041129373
68	0xbd0290e2	-0.031876452
69	0xbdaa6e9f	-0.083218805
70	0xbd5749f2	-0.052560754
71	0xbda1aa33	-0.07893791
72	0x3d2929dc	0.041299686
73	0xbd90ac2c	-0.07064089
74	0xbdb23797	-0.08702009
75	0x3cc3569d	0.023845011
76	0xbd9218ce	-0.07133637
77	0xbd4935c5	-0.049123544
78	0x3d9f37ac	0.077742904
79	0x3c6a3dc8	0.014296956
80	0xbda6cee1	-0.08144928
81	0xbd223064	-0.03959693
82	0xbd83eac6	-0.06441264
83	0xbd3aaf95	-0.045577604
84	0x3d42aa3a	0.047525622
85	0xbcd08720	-0.025455058
86	0xbda5e954	-0.081011444
87	0x3ccb854f	0.02484384
88	0xbd97a267	-0.07404023
89	0x3c8b32a1	0.016991915
90	0xbd71d13a	-0.059037425
91	0x3ca4e2a7	0.020127608
92	0x3cefb1a3	0.029259508
93	0xbb52af04	-0.0032147774
94	0x3d30d58d	0.043172408
